model.pt (torch, 11188 bytes, 6 tensors)

weight f4 [90, 10]
00000000: 0401 38bd 3068 25be a8b0 93bf 336f 91be
00000010: db02 df3f a8c9 b73d 6d7d 713f 076c 08be
00000020: adc5 ee3e cea3 24c0 2a30 b73f 9362 91bf
00000030: 230f 273f 19d4 703f 7235 96bf 8f20 3d3e
00000040: 2a16 123f 887a 9fbd e0ba 53c0 74d0 1dc0
00000050: ad8e 343e 8bdf 0540 5684 2cc0 ca92 e5bf
00000060: f31c d43c c761 afbe ef57 5e3e 4216 023f
00000070: 0d7b 9fbf 94f5 3f3d b285 b03f 7e73 693e
00000080: 23c9 d43e 8169 05c0 7f8f 0040 f46a 94bf
00000090: 1104 41bf 78c2 d43e f390 493f 2fb6 12c0
000000a0: 739a dc3f a035 9e3f bf32 33c0 b534 123f
000000b0: cd34 173f d423 fa3d b200 373f f68b 453f
000000c0: 7279 84c0 989f a4bf 8c18 0240 4f11 ac3e
000000d0: ac3b b6bf e5ae 0b40 4af8 52c0 0d05 34bf
000000e0: 3776 283e 3e9b f0bf f6bc 28be 26a1 f33e
000000f0: 65d1 2240 9506 3740 6b70 00be d28b 6140
00000100: 8afb 0fc0 b498 1fbf 731b 6c3f 7523 df3e
00000110: 107b 403f b07c 4fbd c06b 3340 5dae bbbf
00000120: 2d95 973f eb14 0340 07f8 9ebf dcdc e93f
00000130: a6ab aebf 8abe f5bf 920c cbbf 763d bdbe
00000140: ad50 0fc0 4dec b8be ae38 8c3f 2ef5 8d3f
00000150: e8d8 b93e e690 a2bf c407 5a3f 6c25 49bf
00000160: 5ed1 afbf 0509 0740 b592 fa3e b66e d3bf
00000170: 0a11 9040 87d7 0b40 bc93 e4be aa6d 58bf
00000180: e9eb 0a40 c62a 8bbd 05b8 a8bf c864 34bf
00000190: 9da6 2240 fbed 0440 05f8 07c0 126c b43f
000001a0: 7e2b 373f 3457 98bf 3f3f a4bf 07ea 003f
000001b0: d073 843f c234 1a3e 1c5f 37bf cb5a cebf
000001c0: ad83 1e3f 81c1 0040 6891 9dc0 35cd 8e3c
000001d0: 6407 9b3e 9057 fabe 5590 a33f 0dad 23bf
000001e0: d241 503f a6e4 26be ae3b 0d40 48b5 9c3f
000001f0: 1355 ab3f b0e3 dabf 677c bc3f 62b3 85bf
00000200: 3fb5 e63f 02eb e7be 7b47 00c0 3a85 0fc0
00000210: 99a2 0a40 0330 183f 29a0 9a3f cfa3 453f
00000220: 077f ce3e 085a 3f3f 4cb8 b4be b179 32bf
00000230: 55f6 4cbf 73d6 20bf 0736 7ebf d259 cf3b
00000240: ff44 51c0 b69c 633d 9a06 653f 3da8 40bf
00000250: 2ef0 6fc0 afd1 4bbf 6664 c33e a4f2 4e3f
00000260: 7ff1 e03f 9a93 013f 7115 0440 d19a 793e
00000270: 34b3 67bf 7850 6cbe abae 24c0 0a33 06c0
00000280: d228 01c0 ac57 223f 0e65 33bf ac5a 88c0
00000290: f545 58bb 59e9 223f 4137 0b3f 12b2 e6be
000002a0: 97c2 a83f 2124 d83f ad0d cebf 6121 1840
000002b0: 310d 17bf 4472 d53e d71f 9ebf 065d a4bf
000002c0: 72b1 41c0 c24e fc3d 35aa aabf c6e0 543e
000002d0: 84fb 0440 177a 15c0 07c8 0d3e ef5c 04bf
000002e0: e046 84bf 2573 523f 3f59 0cc0 db37 cdbf
000002f0: 9e21 683f d0ff f13e 38c3 c93f 5a53 fbbe
00000300: 57ff 84c0 38ce 83bf af9f d73f 26c0 423e
00000310: aea0 173f d8c7 88bf 5ed9 17bf e81d 3cbe
00000320: 610c ec3f ce8e 4bc0 6c77 a43f 7aee 023e
00000330: aaf7 9cbf 12fc 9e3f 7ca2 67bf e1a0 b33f
00000340: 12c9 27bf 2151 e43e 4ded 2140 1528 01be
00000350: 5245 f5be cefa 1e3f 45c1 0a3e aee5 113e
00000360: 5a96 93bf a209 84bf d142 4cc0 a608 813f
00000370: dc99 a13f c7f8 4dbe e790 a03f d813 a23f
00000380: 3861 5b3e 5730 3740 14cd 49c0 33b8 923f
00000390: 58f6 7b3f 19ca 7c3f fc99 17c0 5649 06c0
000003a0: 8531 82bc 9f30 14bf 3422 68bf 06ea 053f
000003b0: 4fa3 17c0 5494 68bf c1a6 2ebe ce69 1fbf
000003c0: c6bf 0c40 f06b a5bf 865e 7cbf 46a0 e03c
000003d0: f409 adbe 792b 483e ffc2 7a3f fa04 933f
000003e0: 2697 4f3e 8fb3 e6bf f5c6 79bd 3832 663e
000003f0: 07b5 ff3f 013d 043f 3cbd e13f 94a4 92be
-0.044922844 -0.16153026 -1.1538286 -0.2840515 1.7422746 0.0897401 0.9433201 -0.13322459
0.4663519 -2.5724978 1.4311574 -1.1358207 0.6525747 0.94073635 -1.173506 0.18469451
0.5706507 -0.07787043 -3.308281 -2.465848 0.17632551 2.091769 -2.6955771 -1.7935421
0.02589271 -0.34254286 0.21713232 0.5081521 -1.2459427 0.04686506 1.37908 0.22797963
0.41559705 -2.0845644 2.0087583 -1.159514 -0.7539683 0.41554618 0.787368 -2.2923696
1.7234634 1.2360115 -2.7999723 0.57111675 0.5906494 0.12213865 0.71485436 0.7716669
-4.139825 -1.2861204 2.0327482 0.33606955 -1.423696 2.1825497 -3.2964044 -0.70320207
0.16451345 -1.8797376 -0.16478333 0.47583884 2.5440304 2.8597767 -0.12542884 3.524159
-2.2497277 -0.6234238 0.92229384 0.4358174 0.7518778 -0.05065602 2.8034515 -1.4662586
1.18424 2.0481517 -1.2419442 1.8270526 -1.3646133 -1.9198773 -1.5863211 -0.36960953
-2.239299 -0.36117783 1.0954797 1.1090448 0.362983 -1.270047 0.851681 -0.78572726
-1.3735769 2.1099255 0.48940054 -1.6518161 4.50208 2.1850297 -0.44643962 -0.84542334
2.1706488 -0.06795268 -1.3181158 -0.7046628 2.5414193 2.0770252 -2.124513 1.409548
0.7155074 -1.1901612 -1.2831801 0.503571 1.0347843 0.15059188 -0.716295 -1.6121458
0.6191967 2.0118105 -4.924 0.017431835 0.30279076 -0.4889493 1.2778422 -0.6393593
0.81350434 -0.1629816 2.2067676 1.2242823 1.3385338 -1.7100735 1.4725465 -1.0445368
1.8024062 -0.45296484 -2.0043628 -2.2425065 2.1661742 0.5944826 1.2080127 0.7720308
0.4033129 0.7474675 -0.35296857 -0.69716936 -0.8006337 -0.62827224 -0.9930119 0.006327846
-3.2698362 0.055569373 0.894632 -0.7525671 -3.7490344 -0.79616827 0.38162535 0.8083899
1.7573699 0.5061585 2.0638087 0.24375464 -0.9050782 -0.23077571 -2.573161 -2.0968652
-2.0181165 0.63415027 -0.7007607 -4.2610683 -0.0033000682 0.6363731 0.54381186 -0.45057732
1.3184384 1.6886026 -1.6097924 2.3770373 -0.59004503 0.4168874 -1.2353467 -1.2840889
-3.0264554 0.12319709 -1.3333193 0.2078887 2.0778513 -2.3355768 0.13845836 -0.51704305
-1.0334129 0.82206947 -2.1929471 -1.6032671 0.90676296 0.47265482 1.5762701 -0.4908703
-4.1561694 -1.0297308 1.6845607 0.19018611 0.5922955 -1.0685987 -0.5931605 -0.18370783
1.8441278 -3.180591 1.2848945 0.12786284 -1.2263081 1.2420676 -0.90482306 1.4033471
-0.65541184 0.44593146 2.5301087 -0.12612946 -0.4790445 0.6210145 0.13550289 0.14247772
-1.1530259 -1.031544 -3.1915781 1.0080764 1.2625079 -0.20114432 1.2544221 1.2662306
0.21423805 2.8623254 -3.153142 1.1462463 0.98422766 0.98745877 -2.3687735 -2.098226
-0.015892753 -0.5788669 -0.9067719 0.52310216 -2.3693426 -0.9085133 -0.17055799 -0.6227082
2.199205 -1.2923565 -0.9858173 0.027420174 -0.33796656 0.19547834 0.9795379 1.1485894
0.20272502 -1.8023547 -0.060980756 0.22480094 1.997712 0.51655585 1.7635875 -0.28641188

bias f4 [90]
00000000: 2c81 2cc0 983e e0bf e680 aa3f d43b 5dc0
00000010: f1f8 1dbf 2968 773e c452 f3bf fdf8 01c0
00000020: 2785 4dbf 555a b3bf 4652 05be f75e 1fbf
00000030: 4f02 0cbf cdd9 8ebf bae9 053f 71fb de3d
00000040: f54c 9bbf dea0 4cbf 56a0 c3bf 2ed2 25bf
00000050: fa48 38c0 87f6 c23f 3c04 59be 6cfc eabf
00000060: 2366 afbf 5aca 88bf 810f dfbf eb47 b1be
00000070: 28ad fabf 1a59 1ebf 55af 453f 5c60 38c0
00000080: 0a15 fcbf 970b a83e 004c e0bf 0cca b03d
00000090: 74cb c1bf cb69 29c0 2acd c6bd 42db d8bf
000000a0: 4c12 3dbe 8917 05be be56 df3e 024e ffbf
000000b0: 4f4a afbd e417 05bf 8a13 0bc0 59a1 29be
000000c0: 1688 a9bf e048 53bf ed70 0ebf e031 b6bf
000000d0: aec2 cfbf f6f7 5ebe 7c60 aa3d 90f6 dfbe
000000e0: 09e8 a4bf 9203 eebf 27e9 b03e f9e3 c33c
000000f0: f76c 8cbf 1065 0dbf 5272 afbf b564 dabe
00000100: d9e9 73bf 23b2 8c3e 778d 99bf 27ba c0bf
00000110: f490 19bf 0221 80bf 445e 4dc0 1dca 7f3f
00000120: 24fb 813f b2a4 72bf c9a3 c1bf e56b 18bf
00000130: 7315 07bf c91e 15bf 88fd 1b3f cf4e cf3f
00000140: 2077 47bf b994 c3bf 6757 f2be d70f e0bf
00000150: d13d d73f 1ef1 723f b53e 7e3f efe4 3e3e
00000160: f4b5 18bf 5f2c 353e
-2.695384 -1.7519102 1.3320587 -3.4567766 -0.6170798 0.24160828 -1.9009633 -2.030822
-0.802813 -1.4011942 -0.13019666 -0.6225428 -0.5469102 -1.1160218 0.52309763 0.108878024
-1.213286 -0.79932964 -1.5283306 -0.64773834 -2.8794541 1.5231484 -0.21193022 -1.8358283
-1.3703045 -1.0686753 -1.7426606 -0.34625182 -1.9584093 -0.6185471 0.7722066 -2.8808813
-1.9693921 0.32821342 -1.7523193 0.086322874 -1.5140214 -2.647082 -0.09707101 -1.6941912
-0.18464011 -0.12997259 0.43620867 -1.9945681 -0.08559095 -0.5198958 -2.1730676 -0.16565455
-1.3244655 -0.82533073 -0.5564106 -1.4233971 -1.6231287 -0.21774277 0.08319184 -0.437428
-1.2883312 -1.859484 0.3455288 0.023912417 -1.0970753 -0.55232334 -1.3706763 -0.42654958
-0.952787 0.27479658 -1.1996297 -1.5056809 -0.59986806 -1.0010073 -3.2088785 0.99917775
1.0154767 -0.94782555 -1.5128108 -0.59539634 -0.52767104 -0.582501 0.60933733 1.6195925
-0.77916145 -1.5279762 -0.47332308 -1.7504834 1.681574 0.94899166 0.99314433 0.18642019
-0.5965264 0.17692707

weight f4 [10, 90]
00000000: 2b1d 423f 29fa 21c0 ab12 84bf 6004 e0be
00000010: 1829 2540 8709 4abf c057 0fc0 afdb a33f
00000020: 498b c7bf ab4f e63f c12f e43e 697a 1fc0
00000030: 9c4d 8fbf 9be8 6dbf f734 18bf f881 febf
00000040: af24 213f abf8 753f e792 00c0 6c29 13c0
00000050: 41bd d8bf 174a cfbf 04bd 003f afe8 693f
00000060: 6864 da3e 1b56 453f f947 933e b940 dabf
00000070: e206 d03d 026c c03f c32a fe3f aaee cf3e
00000080: 0114 4f3f 652b ed3f 814b a6bf 56ce fdbc
00000090: c30a b4be 79e5 0f3e 3084 f93e 3cdb f7be
000000a0: b444 b73f 4ab8 563f eab7 833f ed6e 17c0
000000b0: 3828 1bbf ae37 003f 5878 4d3f 5914 26c0
000000c0: 02ed f9bf 6d22 bfbf 9f25 2440 b7f9 823e
000000d0: 2f3b d33e 445e 70bf 4ac6 bebe 5a78 a63f
000000e0: 1646 183e e473 9abf bfab 55bf b3c3 bf3f
000000f0: 356d 0e40 f065 1cc0 9502 0e40 2ef1 1d40
00000100: 6270 eebd 8022 ccbe 979c 97bf 2802 a1be
00000110: 056a 2740 c420 b4bf 379e 1b40 7554 0d40
00000120: 6791 b6bf 6ee0 16c0 92ec 843f 4eb4 ba3f
00000130: eff0 8b3f f198 893f 71c8 d83f 5e5a 94bf
00000140: cbb1 0040 7824 b43f e5f0 1ec0 0bdf cebf
00000150: dea6 053f a977 aebe 1d22 b6bf c98f 073f
00000160: 863e 853f 272e febe 91a0 35bf 6f6e 0b40
00000170: 5c6b 9dbf 7f36 3b3f 77ca 8dbf 44e9 0740
00000180: 2fa1 bf3f b8cd 5b3f c7af a93e 7889 72bf
00000190: da87 913f 56e7 043f 522b 3e40 299c 3340
000001a0: e2e1 153e 1cf8 ea3d d588 983f 5128 1dbf
000001b0: a6eb 02c0 4253 28bc 678d a740 002f cc3f
000001c0: 5de1 693e 31b8 16c0 2846 d9bf 3172 94bf
000001d0: 82ea e03f 37df 87be ed92 663f 5bb0 483f
000001e0: c20b cb3c 9b57 2dbe ea56 f9be 417a 253f
000001f0: 862c ec3e 2d92 e13f a182 4cbe 70d5 75bf
00000200: 7461 603d c2cc 1840 0868 8f3f 10b7 213f
00000210: 3607 dbbf 6c1c f63d 5881 763f b1b8 adbf
00000220: fcac ea3e 5350 80be 48d7 c6bf d451 463f
00000230: ea43 60bf 11b5 89be ba73 5cbf 8a15 353e
00000240: d0b5 b8be 4a3e 27be f3ad 85c0 046c 5e3f
00000250: 0e6a 803e 1855 0dbf e659 3940 1896 70bf
00000260: 6f57 fcbf b242 713d d19c 3bbe 1272 aebf
00000270: 46ef be3f ad60 87be 5481 4240 f1fd 1e3f
00000280: b8be 17be d4c8 013e f81d 4cbd 0de6 95c0
00000290: 4b67 6240 6b1c 0bc0 ef18 f93e 0dc6 1abf
000002a0: a808 f7bf 746b 5bbf d160 e8bf 1336 b5bf
000002b0: 9dba a13f 6f75 b53e 43f1 3cbf f145 7f3f
000002c0: eab5 1a40 afd4 bdbe 027b fa3d 03d6 e9bf
000002d0: 8677 413f 1dd4 2340 5fac bfbe abf1 bf40
000002e0: f22b 8e3f 0b86 68be 3ade f93c 352f c83f
000002f0: 4480 45bf 621e 2c3f b38f 02c0 de7b a73f
00000300: 6b68 aebb 7411 8a40 1dda 1d3f c8af 9bc0
00000310: 4449 293f e0c4 043f 9892 a0bf a6b0 edc0
00000320: e176 0bc0 3c03 573f 4378 a33f 7c64 64bf
00000330: bdcf aebf 6c09 493f 5cf2 2340 609a 60c0
00000340: 8825 973e d8a0 3dbf 98c6 c8bf 6d85 d4bf
00000350: 81a9 2940 e61f 8a3d fb98 d2bf 7908 78be
00000360: 0cf3 b63f 1d55 193f 0aea 5bbe ef8b 8a3f
00000370: be01 83c0 0f92 a7be 9d47 bf3f 6c65 ca3e
00000380: e7b8 89be 5a40 f9bf 0a73 89bf 2e30 50bf
00000390: 4fa2 e4c0 835b bcbe 7543 97bf d337 d83f
000003a0: a52c 11bf 3317 e7bf 2d86 e43d 4c48 98be
000003b0: f7c3 543f 56c3 b1c0 1a2e e03f 0259 083e
000003c0: 8c7a ef3f 63ea 873f 1160 b83f 4b4e 3cbf
000003d0: 4dce 4940 0d02 223f 46a5 cabf 0828 9bc0
000003e0: a4bf cd3f ba09 923e eee0 f3bf 2a7b 3fbf
000003f0: e24b 9b3e c1e7 14bf 4bf2 7e3d 265a 0c40
0.75825757 -2.5308936 -1.0318197 -0.43753338 2.5806332 -0.7892079 -2.2397308 1.2801417
-1.5589381 1.7993063 0.44567683 -2.4918463 -1.119556 -0.9293305 -0.5945582 -1.9883413
0.629466 0.9608256 -2.0089662 -2.2994032 -1.6932756 -1.6194485 0.50288415 0.9137067
0.4265473 0.7708451 0.28765848 -1.7051002 0.10157563 1.5032961 1.98568 0.40611774
0.808899 1.8528868 -1.2991792 -0.030982178 -0.3516446 0.1405238 0.48733664 -0.4840945
1.4317842 0.8387495 1.0290501 -2.3661454 -0.60608244 0.5008496 0.80261755 -2.594992
-1.9525454 -1.4932381 2.5647962 0.25581142 0.4125609 -0.9389384 -0.37260658 1.3005478
0.14870486 -1.2066617 -0.8346519 1.4981598 2.2254155 -2.4437218 2.2189076 2.4678454
-0.11642529 -0.3987007 -1.1844662 -0.31446958 2.615846 -1.4072499 2.4315317 2.2082798
-1.4263123 -2.357448 1.0384696 1.4586275 1.0932902 1.0749799 1.693617 -1.1590078
2.0108516 1.4073629 -2.483453 -1.6161817 0.52207744 -0.34075668 -1.422916 0.52953774
1.0409706 -0.49644586 -0.7094813 2.1786153 -1.2298388 0.7313003 -1.1077412 2.1236124
1.4971064 0.85860777 0.3314192 -0.9474101 1.1369584 0.5191549 2.971394 2.8064063
0.14636949 0.11473104 1.1916758 -0.6138964 -2.0456328 -0.010273756 5.236011 1.5951843
0.22839876 -2.3549922 -1.6974535 -1.1597348 1.7571566 -0.26537487 0.9006794 0.783941
0.02478588 -0.1692795 -0.48699123 0.6463967 0.4612772 1.7622734 -0.19971706 -0.96028805
0.05478044 2.3874974 1.1203623 0.63169956 -1.7111576 0.1201714 0.9629111 -1.3571988
0.45835102 -0.25061283 -1.5534449 0.7746861 -0.8760363 -0.26895955 -0.86114085 0.17683998
-0.36076212 -0.16332355 -4.177484 0.8688357 0.25080913 -0.5520797 2.896112 -0.93979025
-1.9714183 0.058901496 -0.1832154 -1.3628561 1.491677 -0.26440945 3.0391436 0.62106234
-0.14818847 0.12674266 -0.049833268 -4.6843324 3.5375545 -2.1736095 0.48651835 -0.6045845
-1.9299517 -0.85710835 -1.8154546 -1.4157127 1.2635075 0.35441157 -0.73805636 0.997161
2.4173532 -0.37076327 0.12230493 -1.8268436 0.75573003 2.5598214 -0.37436196 5.9982505
1.1107161 -0.22707383 0.030501474 1.5639406 -0.7714884 0.6723386 -2.0400207 1.3084676
-0.005322506 4.3146305 0.6166094 -4.8652077 0.6612742 0.5186291 -1.2544737 -7.4278135
-2.1791308 0.8398931 1.2771076 -0.89215827 -1.3657147 0.7853 2.5616674 -3.5094223
0.29520822 -0.74073553 -1.5685606 -1.6603218 2.6509707 0.067443654 -1.6452936 -0.24221982
1.4292922 0.598955 -0.21475998 1.0823954 -4.0939627 -0.3272862 1.494373 0.39530504
-0.26898882 -1.9472764 -1.0738232 -0.81323516 -7.144813 -0.36788568 -1.1817461 1.6892036
-0.5670875 -1.8053955 0.111584045 -0.29742658 0.8311152 -5.5550947 1.7514069 0.13315204
1.8709273 1.0618404 1.4404317 -0.73556966 3.1532166 0.6328438 -1.5831687 -4.8486366
1.6074109 0.28523046 -1.9053018 -0.7479731 0.30331331 -0.5816613 0.062242787 2.1930022

bias f4 [10]
00000000: be49 a03e 496e 7c3f 22bd 71bf 5f6a 433f
00000010: de0a b23e 238a c83e b8f0 d63e 7f5e f5be
00000020: ef01 98bf 32b3 05bf
0.3130626 0.9860578 -0.9442922 0.76334184 0.34773916 0.3916789 0.4198053 -0.47923657
-1.187559 -0.52226555

weight f4 [2, 10]
00000000: 8eb7 30be 410f 8abe 6731 05bf 9bf6 82be
00000010: 31db 893d 8ec4 c7be 9940 03bf a583 23bf
00000020: 1df2 d9be 659b cbbe fbfe d33e 4c3e f53d
00000030: 84d0 133f 61b9 713e 7552 cdbe 8adc dc3d
00000040: e8df 3dbc 8bb7 7c3e e492 0c3f ce96 063f
-0.1725752 -0.26964763 -0.52028507 -0.2557877 0.067312606 -0.39017147 -0.51270443 -0.6387275
-0.4256753 -0.39766994 0.41405472 0.11974773 0.57740045 0.23605873 -0.40101972 0.10784252
-0.011589028 0.24679391 0.5491164 0.5257386

bias f4 [2]
00000000: 82be d63f 0d23 f6bf
1.6776888 -1.9229447
